application/app/src/main/ml/imumodel.tflite (tflite, 134080 bytes, 7 tensors)

sequential_3/conv1d_3/BiasAdd/ReadVariableOp f4 [32]
0.03233089 0.0066786846 0.02353578 0.02759903 0.024985634 0.024624096 0.011298954 0.035401877
0.0028727157 -0.023406792 0.042467475 -0.002053201 -0.009491695 0.024262227 0.031977687 0.031361364
-0.014578903 -0.004922849 -0.008425588 -0.01851804 0.01950563 0.022588132 0.006109715 -0.00621624
0.00902374 0.008837634 -0.0028293333 0.041479282 -0.009503274 0.0006672686 -0.013573664 -0.019725775
00000000: 656d 043d ded8 da3b 1cce c03c 5c17 e23c
00000010: acae cc3c 79b8 c93c 3f1f 393c 8f01 113d
00000020: 2c44 3c3b 9abf bfbc 60f2 2d3d ff8e 06bb
00000030: 0e83 1bbc 94c1 c63c 09fb 023d c674 003d
00000040: 5adc 6ebc da4f a1bb 7a0b 0abc 25b3 97bc
00000050: 45ca 9f3c bf0a b93c 0134 c83b 9ab1 cbbb
00000060: 4fd8 133c b9cb 103c 566c 39bb 2ee6 293d
00000070: 9fb3 1bbc a3eb 2e3a 1364 5ebc f397 a1bc

sequential_3/conv1d_3/Conv1D f4 [32, 1, 8, 6]
0.0923706 -0.16646063 0.15375572 -0.08410619 -0.09927654 -0.062473416 0.1452576 -0.23840289
-0.01978487 -0.38130233 -0.014200365 -0.11549569 0.01873113 -0.08321463 0.13391691 0.13865145
0.31379136 0.20297772 0.21689123 0.078794606 0.08860059 -0.14538658 0.02760671 -0.052192178
-0.03620539 0.200201 -0.20794183 0.082498156 -0.20766504 0.24358295 -0.35707384 0.22340538
-0.123453245 -0.11429528 -0.08068973 -0.15315944 0.17185006 0.031035732 0.2848313 0.17356929
-0.08525611 0.3728396 0.18756947 -0.42975077 0.29414168 0.10185022 0.17944448 0.21862438
0.2815458 -0.039823074 -0.1722344 -0.26016214 0.09661496 -0.19139403 0.041786194 0.07873349
-0.14896365 -0.077257454 -0.111333825 0.0857524 0.034630958 0.11046506 0.23571634 -0.13912486
-0.12730397 0.019220121 -0.29695475 0.123133935 0.14912407 -0.025576834 -0.08968255 0.24279545
-0.25969332 0.024248717 0.18733947 0.34031075 0.15610509 -0.16513583 0.093062386 -0.2923116
0.3002722 -0.021432193 0.0006413975 0.3909572 0.057519175 -0.23378606 -0.11832372 0.32949105
-0.04488762 0.03134881 -0.33206162 0.31987223 0.23899497 -0.019289156 -0.042073008 0.030088482
0.35696045 -0.11528745 -0.18597613 0.33335626 0.14877276 -0.10457155 -0.03323507 0.12307723
0.09157014 0.021810623 -0.27935505 0.025410177 0.037290078 -0.06077482 0.04618802 -0.31614438
-0.11384004 -0.09197866 0.09777687 0.033052225 0.28259647 -0.3993116 -0.40220731 0.06616578
0.34938806 0.4081012 0.03060387 0.01066944 0.22075664 0.38142744 0.09393298 -0.19215932
0.045309283 0.07850737 -0.3385044 0.25679234 0.17101695 0.34244615 0.16170047 -0.04056753
-0.010291564 0.3159788 -0.09654696 0.0015248426 0.12801713 -0.0325014 -0.39296 -0.12873879
-0.17351878 -0.24609672 -0.14097795 0.16589965 -0.45915562 0.19215044 -0.008949653 0.19293587
-0.21724197 -0.08816719 0.4212004 0.33341703 -0.012689554 -0.059868682 -0.06898659 0.0024345072
0.015296985 0.13757461 -0.03494843 -0.10635356 -0.13954039 -0.0061654183 0.27035594 -0.015171866
-0.054921553 0.088204555 -0.13381582 -0.04120654 -0.22962384 -0.2609243 -0.36224434 0.161126
-0.18219987 0.25868094 -0.3390183 0.049509298 -0.18528432 -0.20187896 0.20338699 0.14127365
0.30832005 0.10052009 0.028414847 -0.10829827 0.004017491 0.083106995 0.04722312 -0.039487954
0.22162536 -0.12314166 0.24220385 -0.06977407 -0.1601602 0.2627536 0.13690329 -0.054132573
0.053349968 0.16266154 0.25902772 0.013768876 -0.2571401 0.10917231 0.21808401 0.01931802
0.027655533 0.075015426 -0.28676426 0.03275805 0.26682875 0.16754022 -0.09274423 -0.23513635
-0.030680863 0.07285323 -0.06447858 0.03996662 -0.33221012 0.25048354 -0.076703906 -0.005026839
0.004812618 -0.09313581 0.119851924 -0.2660871 -0.09508224 0.40576887 -0.029230345 0.04488511
0.17584758 0.31350154 0.14639261 0.0106754955 0.23439093 0.28697562 0.08809667 0.24588865
-0.040594965 0.26823074 0.13085721 0.43569577 0.056787975 -0.2503023 0.230119 0.005966756
0.009469122 -0.14906012 -0.26516563 0.024146654 0.31785253 -0.40272203 -0.13483852 0.04520166
00000000: cc2c bd3d a874 2abe 2472 1d3e de3f acbd
00000010: 8051 cbbd 20e4 7fbd 69be 143e e31f 74be
00000020: e113 a2bc 0f3a c3be a6a8 68bc 0189 ecbd
00000030: 0772 993c 6f6c aabd 8421 093e a5fa 0d3e
00000040: 43a9 a03e 64d9 4f3e bc18 5e3e 115f a13d
00000050: 3a74 b53d 38e0 14be 7827 e23c 77c7 55bd
00000060: 1a4c 14bd 7e01 4d3e b4ee 54be cbf4 a83d
00000070: 25a6 54be cf6d 793e 62d2 b6be 61c4 643e
00000080: 0ed5 fcbd a513 eabd a840 a5bd d4d5 1cbe
00000090: 76f9 2f3e a63e fe3c 68d5 913e 26bc 313e
000000a0: c19a aebd d5e4 be3e 3612 403e 4b08 dcbe
000000b0: bd99 963e d996 d03d 4bc0 373e 12df 5f3e
000000c0: c526 903e 851d 23bd 375e 30be f933 85be
000000d0: 10de c53d ccfc 43be 0028 2b3d 063f a13d
000000e0: ed89 18be 2839 9ebd fd02 e4bd f49e af3d
000000f0: 31d9 0d3d 813b e23d a05f 713e bf76 0ebe
00000100: f95b 02be 8473 9d3c 740a 98be a52d fc3d
00000110: fbb3 183e 8286 d1bc 7cab b7bd 5f9f 783e
00000120: 86f6 84be 3fa5 c63c ebd5 3f3e 363d ae3e
00000130: 03da 1f3e 5e19 29be 7e97 be3d dea9 95be
00000140: 47bd 993e 9192 afbc 7523 283a 8b2b c83e
00000150: 3a99 6b3d 9d65 6fbe b553 f2bd 0db3 a83e
00000160: 15dc 37bd 9c67 003d fb03 aabe 4bc6 a33e
00000170: 19bb 743e 4b04 9ebc bf54 2cbd 1f7c f63c
00000180: 85c3 b63e d41b ecbd 8770 3ebe acad aa3e
00000190: e357 183e 9c29 d6bd 7f21 08bd ea0f fc3d
000001a0: 2089 bb3d 31ac b23c a007 8fbe 0129 d03c
000001b0: 7bbd 183d 05ef 78bd a62f 3d3d addd a1be
000001c0: f824 e9bd 4f5f bcbd 3d3f c83d c561 073d
000001d0: 7cb0 903e 9272 ccbe 1eee cdbe ed81 873d
000001e0: fee2 b23e a4f2 d03e f8b4 fa3c e0ce 2e3c
000001f0: 070e 623e 754a c33e ef5f c03d 6ac5 44be
00000200: 3a96 393d 79c8 a03d 7350 adbe 497a 833e
00000210: 111f 2f3e 1a55 af3e cf94 253e 232a 26bd
00000220: f39d 28bc f9c7 a13e 6aba c5bd 3add c73a
00000230: ec16 033e 3020 05bd 0e32 c9be 1ad4 03be
00000240: e8ae 31be c700 7cbe 865c 10be 99e1 293e
00000250: 7216 ebbe 16c3 443e 91a1 12bc fb90 453e
00000260: ae74 5ebe 0091 b4bd 94a7 d73e a3b5 aa3e
00000270: d9e7 4fbc dd38 75bd d748 8dbd 418c 1f3b
00000280: 35a0 7a3c 5ce0 0c3e 1626 0fbd e5cf d9bd
00000290: ade3 0ebe 4707 cabb 186c 8a3e 6b93 78bc
000002a0: 6cf5 60bd 97a4 b43d 0407 09be 30c8 28bd
000002b0: 8322 6bbe df97 85be 1778 b9be 37fe 243e
000002c0: 9a92 3abe d471 843e ce93 adbe 43ca 4a3d
000002d0: 2cbb 3dbe 5cb9 4ebe ae44 503e 0aaa 103e
000002e0: 20dc 9d3e 7add cd3d 41c6 e83c 7ccb ddbd
000002f0: 28a5 833b 0034 aa3d 086d 413d 1fbe 21bd
00000300: c2f1 623e b231 fcbd 4904 783e b5e5 8ebd
00000310: 0901 24be a487 863e 6030 0c3e 1eba 5dbd
00000320: 7f85 5a3d bf90 263e 489f 843e da96 613c
00000330: dea7 83be bb95 df3d 6a51 5f3e d340 9e3c
00000340: db8d e23c b0a1 993d c4d2 92be 4e2d 063d
00000350: c79d 883e aa8f 2b3e b0f0 bdbd 95c7 70be
00000360: 6f56 fbbc 1334 953d 590d 84bd 0ab4 233d
00000370: 7217 aabe 613f 803e f016 9dbd 2fb8 a4bb
00000380: 2ab3 9d3b fdbd bebd ed74 f53d 923c 88be
00000390: 7aba c2bd f0c0 cf3e 7a74 efbc 73d9 373d
000003a0: 6311 343e 4683 a03e f2e7 153e 46e8 2e3c
000003b0: 2d04 703e 78ee 923e 076c b43d 3cca 7b3e
000003c0: e846 26bd 8a55 893e 6fff 053e 8413 df3e
000003d0: 829a 683d a027 80be 51a4 6b3e c784 c33b
000003e0: 6024 1b3c 37a3 18be cac3 87be 34cf c53c
000003f0: 91bd a23e 9531 cebe 1c13 0abe 6025 393d

sequential_3/batch_normalization_3/batchnorm/sub f4 [6]
0.05702898 0.2710342 -0.4140476 -0.009610672 0.0019159028 0.08537623
00000000: 3897 693d ffc4 8a3e 0cfe d3be 1476 1dbc
00000010: 081f fb3a bcd9 ae3d

sequential_3/batch_normalization_3/batchnorm/mul f4 [6]
0.21181218 0.267876 0.14633851 0.42577413 0.47612298 0.4747719
00000000: 4be5 583e 0b27 893e c3d9 153e 11ff d93e
00000010: 64c6 f33e 4d15 f33e

sequential_3/dense_6/BiasAdd/ReadVariableOp f4 [64]
0.033301223 -0.00963256 -0.009930881 -0.010646014 -0.009580361 -0.0024860972 0.025553765 -0.009969381
-0.002317188 -0.010155815 0.038068775 -0.009896905 0.01605312 -0.0150845945 -0.008567407 0.028115682
-0.0038402374 -0.017252889 0.025222166 -0.017777322 0.028933117 0.009833902 -0.0064672506 -0.010508176
-0.009583396 -0.008987561 -0.0034427084 -0.015141194 -0.0069188885 -0.017565148 -0.010840037 0.024250176
-0.00899069 -0.0072129974 -0.010526139 0.014044907 -0.019987395 -0.015208193 0.01848241 -0.0102065345
-0.0018543014 0.036306668 -0.01658841 -0.010409252 -0.017518831 -0.011201115 -0.008483834 -0.011456614
-0.0042988556 0.026387801 -0.0020004874 -0.01905939 0.0012700805 -0.00849539 -0.016318424 -0.0071477364
-0.00044294854 -0.008089388 0.02627287 -0.008391783 0.0015778455 -0.008860193 -0.010379094 -0.00923478
00000000: dd66 083d e3d1 1dbc 22b5 22bc 9e6c 2ebc
00000010: f2f6 1cbc caed 22bb 2156 d13c 9d56 23bc
00000020: f7db 17bb 9364 26bc 01ee 1b3d a126 22bc
00000030: d581 833c 6025 77bc 4f5e 0cbc dc52 e63c
00000040: 7eac 7bbb ee55 8dbc b79e ce3c bfa1 91bc
00000050: 2505 ed3c 601e 213c 3beb d3bb 7c2a 2cbc
00000060: ad03 1dbc 9040 13bc 109f 61bb c512 78bc
00000070: d8b7 e2bb c9e4 8fbc 699a 31bc 4ea8 c63c
00000080: b04d 13bc 025b ecbb d475 2cbc 9c1c 663c
00000090: 9bbc a3bc c92b 79bc 6c68 973c 4f39 27bc
000000a0: 080c f3ba 4db6 143d 6be4 87bc 918b 2abc
000000b0: a783 8fbc e284 37bc c7ff 0abc 86b4 3bbc
000000c0: 6add 8cbb 3b2b d83c 9c1a 03bb 7022 9cbc
000000d0: d478 a63a 4030 0bbc 37ae 85bc 8f37 eabb
000000e0: 8c3b e8b9 5a89 04bc 343a d73c b07d 09bc
000000f0: b6cf ce3a 582a 11bc 130d 2abc 7a4d 17bc

sequential_3/dense_6/MatMul f4 [64, 480]
0.06461745 0.07119092 -0.003390118 0.037795283 0.014790311 0.02524769 -0.0027505655 0.02055375
0.09563311 0.053418744 0.00017660158 -0.006149014 -0.030538743 -0.05334626 -0.080190696 -0.08344366
-0.041028462 -0.05586359 0.045456048 0.0658869 -0.03994034 0.07929411 0.07138168 0.040850937
-0.10111368 0.049967866 0.004070038 -0.050158434 0.06373368 0.14729217 -0.095443375 0.030206716
0.10356594 0.058304325 -0.00049215095 0.10310528 0.09127159 -0.046348084 -0.06657184 -0.103011794
-0.029038895 0.05440803 -0.054763734 0.09866565 0.028879473 0.017225256 -0.04944155 0.092884555
0.036695797 -0.1507887 0.10844769 -0.022973089 0.008715496 0.043841284 0.08149794 -0.08480666
0.0012966942 0.05074586 -0.1098801 0.09293475 0.011816164 -0.036021795 0.11258611 0.052047726
0.06290048 -0.00095628283 0.11855192 -0.018563488 -0.094076455 0.15618607 -0.07747333 0.06284277
0.037368733 0.029597817 -0.16076536 0.05144146 -0.06615942 0.051272765 0.042165224 0.0023623318
0.024208128 0.0025595198 0.10592993 0.0775295 0.024265287 0.052833077 -0.13984737 -0.07418804
0.06374945 -0.069097884 -0.109953046 -0.046186984 0.0081034005 0.019671239 0.06327938 -0.008199136
-0.042829476 0.036056295 0.06762084 0.047326397 -0.038553547 -0.05065874 0.0045783883 -0.03636115
0.026016293 0.045489684 0.059881624 0.04284198 0.11666463 0.04089163 0.03141793 -0.0024800135
0.078768305 -0.102296986 0.009677039 -0.08397444 0.027499266 -0.051701806 0.043723907 0.06701819
-0.12237306 0.04320544 -0.046297252 -0.009868546 -0.033629186 -0.08917841 0.08644937 0.035823066
0.0063905027 0.12517302 0.08975222 -0.078982264 0.1740605 0.041780367 -0.026994603 -0.051497757
0.10775955 -0.06950234 -0.059075017 -0.039914962 0.07624262 0.019499447 -0.0920575 0.033399012
-0.05161291 0.056860205 -0.02066401 0.06644223 -0.014059515 0.111705035 -0.08045629 -0.13773632
0.072078586 -0.00040283587 -0.03419042 0.06537258 -0.06169782 0.050766207 -0.11840865 -0.015531315
0.0856531 0.111772455 0.02706644 0.032600127 0.060610227 0.012665224 -0.012839112 0.039006665
-0.07105366 -0.0070971684 0.042813007 -0.103553645 0.00828515 0.09420764 -0.07126022 0.031976793
0.030238293 -0.054052327 -0.076952666 -0.023160256 -0.013882477 -0.01052729 0.040501796 -0.00960543
-0.004399648 -0.02840499 0.006173799 0.043427568 0.030857112 -0.011516216 -0.11135458 0.080870695
0.08291795 0.090078056 0.017726043 0.017017936 0.031509858 0.10109085 -0.02412743 0.10154529
-0.014989657 -0.026586952 -0.052575856 0.044121306 -0.0681136 0.031361166 0.040245663 -0.08731417
-0.059858978 -0.0033308216 -0.0039611906 -0.06305957 0.07226913 -0.009369392 0.019857692 -0.048527364
0.04359703 -0.0023912764 -0.062145274 -0.01798501 -0.042757396 -0.066505596 0.03909333 0.054607518
0.10061978 -0.0783834 0.023323758 -0.014924388 0.07286481 0.061857708 -0.015061502 -0.08439074
-0.06121172 -0.010441255 -0.07916209 -0.069698736 -0.018918125 0.018726427 0.018515356 -0.05989316
-0.040997583 -0.102756284 -0.081233785 0.041018542 0.029160133 -0.026882123 -0.05656216 0.08939215
0.04875507 0.09531943 -0.01988907 0.08160074 0.07969133 0.013777467 0.08337567 0.004928888
00000000: 2756 843d 8ccc 913d be2c 5ebb 3acf 1a3d
00000010: 1053 723c 3ed4 ce3c d542 34bb 5760 a83c
00000020: 4bdb c33d 9dcd 5a3d 202e 3939 ab7d c9bb
00000030: 632c fabc 9c81 5abd 053b a4bd 82e4 aabd
00000040: 760d 28bd 38d1 64bd 1f30 3a3d b6ef 863d
00000050: 7b98 23bd f364 a23d 8f30 923d 5053 273d
00000060: b014 cfbd 1bab 4c3d f45d 853b ee72 4dbd
00000070: ce86 823d c2d3 163e d177 c3bd 1374 f73c
00000080: 611a d43d 84d0 6e3d b103 01ba dc28 d33d
00000090: 99ec ba3d 7dd7 3dbd d156 88bd d9f7 d2bd
000000a0: fae2 edbc f4da 5e3d f04f 60bd 3711 ca3d
000000b0: a594 ec3c fb1b 8d3c 3983 4abd 423a be3d
000000c0: 554e 163d 5a68 1abe d319 de3d 0f32 bcbc
000000d0: 71cb 0e3c eb92 333d 64e8 a63d 1daf adbd
000000e0: d6f5 a93a e4da 4f3d d108 e1bd 9354 be3d
000000f0: 9598 413c 978b 13bd 8c93 e63d ff2f 553d
00000100: f8d1 803d 0eaf 7aba 59cb f23d 7512 98bc
00000110: 28ab c0bd 3eef 1f3e 56aa 9ebd b6b3 803d
00000120: f50f 193d 1f77 f23c ad9f 24be 48b4 523d
00000130: 977e 87bd 6403 523d 71b5 2c3d 5ad1 1a3b
00000140: 2050 c63c 9ebd 273b cbf1 d83d c9c7 9e3d
00000150: ffc7 c63c 7f67 583d 2634 0fbe e6ef 97bd
00000160: 128f 823d 3183 8dbd 102f e1bd 902e 3dbd
00000170: 20c4 043c 9425 a13c 9f98 813d ab55 06bc
00000180: f66d 2fbd c4af 133d cc7c 8a3d 53d9 413d
00000190: 53ea 1dbd 8a7f 4fbd 4e06 963b 6eef 14bd
000001a0: 1f20 d53c 6453 3a3d 6f46 753d 127b 2f3d
000001b0: deed ee3d fb7d 273d 16b0 003d b987 22bb
000001c0: 4751 a13d 1581 d1bd 728c 1e3c cbfa abbd
000001d0: 2446 e13c 46c5 53bd d717 333d d540 893d
000001e0: ba9e fabd 30f8 303d 30a2 3dbd afaf 21bc
000001f0: c2be 09bd 2ca3 b6bd 5e0c b13d 35bb 123d
00000200: 6c67 d13b 5b2d 003e 03d0 b73d 74c1 a1bd
00000210: ea3c 323e e421 2b3d c923 ddbc 50ef 52bd
00000220: 0ab1 dc3d 3e57 8ebd a5f8 71bd df7d 23bd
00000230: 1725 9c3d 4ebd 9f3c a488 bcbd 67cd 083d
00000240: 0f68 53bd 3fe6 683d 9247 a9bc dd12 883d
00000250: e159 66bc 9cc5 e43d 44c6 a4bd c00a 0dbe
00000260: f09d 933d b733 d3b9 410b 0cbd 0fe2 853d
00000270: dab6 7cbd 3af0 4f3d 3c80 f2bd 0e77 7ebc
00000280: e46a af3d f5e8 e43d 70ba dd3c b687 053d
00000290: 6e42 783d cd81 4f3c 245b 52bc 74c5 1f3d
000002a0: 9584 91bd 5d8f e8bb b15c 2f3d ef13 d4bd
000002b0: 70be 073c efef c03d e1f0 91bd 19fa 023d
000002c0: 4cb6 f73c f965 5dbd 5c99 9dbd 94ba bdbc
000002d0: 5473 63bc a87a 2cbc 36e5 253d 1860 1dbc
000002e0: ec2a 90bb 95b1 e8bc 944d ca3b 1be1 313d
000002f0: 0ec8 fc3c 83ae 3cbc df0d e4bd 899f a53d
00000300: e3d0 a93d d87a b83d 3536 913c 3369 8b3c
00000310: 7b10 013d b808 cf3d e3a6 c5bc faf6 cf3d
00000320: 2e97 75bc e1cc d9bc c859 57bd 8bb8 343d
00000330: 257f 8bbd 9174 003d a3d8 243d c6d1 b2bd
00000340: b02e 75bd ea49 5abb e0cc 81bb 6025 81bd
00000350: d601 943d 1482 19bc 99ac a23c a1c4 46bd
00000360: cd92 323d f6b6 1cbb 0b8c 7ebd 4d55 93bc
00000370: 6122 2fbd 1634 88bd 5420 203d 22ac 5f3d
00000380: be11 ce3d 7a87 a0bd 7711 bf3c 6c85 74bc
00000390: 253a 953d 825e 7d3d 85c4 76bc 0dd5 acbd
000003a0: 24b9 7abd cc11 2bbc bc1f a2bd 36be 8ebd
000003b0: 2ffa 9abc 2a68 993c 84ad 973c 8852 75bd
000003c0: 15ed 27bd e371 d2bd e65d a6bd 0f03 283d
000003d0: 3be1 ee3c e637 dcbc b9ad 67bd 3b13 b73d
000003e0: 65b3 473d d536 c33d 67ee a2bc 4a1e a73d
000003f0: 3535 a33d e3ba 613c ddc0 aa3d 8282 a13b

sequential_3/dense_7/MatMul f4 [1, 64]
-0.084867135 -0.26047707 -0.14036857 -0.10003916 -0.05902775 0.16823696 -0.24554071 -0.20299937
0.27028236 -0.24933268 -0.052091755 -0.11048144 -0.17804222 0.17682806 0.24053223 -0.14435953
0.17326485 0.05490849 -0.26844272 0.073994316 -0.32128882 -0.0050345114 0.30459213 -0.22232884
-0.0034665382 -0.12196503 0.2876578 0.19658294 0.09904637 0.063819274 -0.10403589 -0.28174344
0.08441174 -0.06347723 -0.2679909 -0.18158273 0.115090504 0.04295838 -0.24688219 -0.2930365
0.18076548 -0.092928 0.29527915 -0.1447571 0.26440805 -0.23870976 -0.13713482 -0.09162064
0.05595749 -0.16976772 0.27593789 0.04375849 0.15135014 0.21896932 0.035679 -0.23507105
0.08962403 0.039868966 -0.21379517 0.3026492 0.3099468 0.028731158 0.29750878 0.051054582
00000000: d2ce adbd 405d 85be c7bc 0fbe 55e1 ccbd
00000010: 15c7 71bd 4f46 2c3e 066f 7bbe 11df 4fbe
00000020: 7362 8a3e 1151 7fbe 2a5e 55bd 1844 e2bd
00000030: b350 36be 6a12 353e 154e 763e fcd2 13be
00000040: 576c 313e bae7 603d 5371 89be 558a 973d
00000050: f87f a4be 8bf8 a4bb 80f3 9b3e 2caa 63be
00000060: dc2e 63bb cdc8 f9bd e247 933e 0a4d 493e
00000070: d3d8 ca3d aeb3 823d c510 d5bd ad40 90be
00000080: 10e0 ac3d 5a00 82bd 1a36 89be d3f0 39be
00000090: 92b4 eb3d 20f5 2f3d afce 7cbe e108 96be
000000a0: 961a 393e 0951 bebd d42e 973e 353b 14be
000000b0: 7e60 873e 5570 74be 126d 0cbe 9aa3 bbbd
000000c0: ae33 653d 97d7 2dbe bb47 8d3e 1a3c 333d
000000d0: 88fb 1a3e 7e39 603e 2524 123d 77b6 70be
000000e0: ce8c b73d a44d 233d 1fed 5abe d6f4 9a3e
000000f0: 59b1 9e3e 9b5d eb3c 1253 983e 9c1e 513d
